src/models/tanh_60k/domain_tanh_epoch=54499.ckpt (torch, 2779 bytes, 3 tensors)

fc1.weight f4 [8, 2]
0	0xbf26eb64	-0.6520293
1	0x3ce6492c	0.028111063
2	0xbe292bc0	-0.16520596
3	0x3ed297eb	0.4113153
4	0x3f0f5a5e	0.55997264
5	0x3ec64c86	0.38730258
6	0xbf1c5bb6	-0.6107744
7	0x3dac8621	0.084240206
8	0xbdb46477	-0.08808225
9	0xbeb3fac3	-0.35152254
10	0xbfc99148	-1.5747461
11	0x3bc5d170	0.00603693
12	0x3f91d84c	1.1394134
13	0xbc54687b	-0.012964363
14	0x3e174f45	0.14776333
15	0x3f2ce79e	0.6754092

fc1.bias f4 [8]
0	0x3e87cb2e	0.265222
1	0xbf177fe2	-0.5917951
2	0x3c9f1b37	0.019422157
3	0x3e8213c4	0.25405705
4	0xbf0f23d2	-0.5591403
5	0x3d005ed9	0.031340454
6	0xbd292f51	-0.04130489
7	0x3f15c0e7	0.5849747

fc2.weight f4 [1, 8]
0	0xbd600dd9	-0.054700706
1	0x3b0b84e4	0.0021288926
2	0x3d0766f6	0.033057176
3	0xbe442d86	-0.19157991
4	0xbbca4863	-0.00617318
5	0x3f5e0764	0.8673003
6	0xbecf45b9	-0.40482882
7	0xbc21aee4	-0.009868357
