src/models/tanh_60k/domain_tanh_epoch=18499.ckpt (torch, 2779 bytes, 3 tensors)

fc1.weight f4 [8, 2]
0	0xbf1d9056	-0.61548364
1	0x3c987e95	0.018615047
2	0xbe284ef7	-0.16436373
3	0x3ed26b07	0.4109728
4	0x3f035388	0.51299334
5	0x3eebd924	0.46064103
6	0xbf0de0e5	-0.55421287
7	0x3e935769	0.28777626
8	0xbdb915f4	-0.0903739
9	0xbeb3ff26	-0.351556
10	0xbf889cb8	-1.0672827
11	0x3b40e16e	0.0029431242
12	0x3f56a64c	0.838475
13	0xbbc9294a	-0.0061389552
14	0x3e137c05	0.14402778
15	0x3f2ce79e	0.6754092

fc1.bias f4 [8]
0	0x3e8c7c9d	0.27438822
1	0xbf177fe2	-0.5917951
2	0x3c90e3e2	0.017686788
3	0x3e91f6ea	0.28508693
4	0xbf0f23d2	-0.5591403
5	0xbd93c573	-0.07215395
6	0x39abb967	0.00032753797
7	0x3f15c0e7	0.5849747

fc2.weight f4 [1, 8]
0	0x3e1cd39f	0.15315102
1	0x3b6379b0	0.0034709983
2	0x3d598328	0.053103596
3	0xbdd42f6e	-0.10360609
4	0xbb9968b1	-0.0046816696
5	0x3f1d9d63	0.6156828
6	0xbec370f0	-0.38172102
7	0xbc1bdd29	-0.009513178
