src/models/tanh_60k/domain_tanh_epoch=38999.ckpt (torch, 2779 bytes, 3 tensors)

fc1.weight f4 [8, 2]
000000 ec 4a 27 bf 73 c7 10 3d bd fa 28 be eb 97 d2 3e
       -0.65348697 0.03534646 -0.16501899 0.4113153
000010 bf c6 0b 3f 59 5f d2 3e 09 0f 19 bf fa da 20 3e
       0.5460014 0.4108837 -0.59788567 0.15708533
000020 92 79 b6 bd c3 fa b3 be ba 15 b2 bf 36 bc c4 3b
       -0.089099064 -0.35152254 -1.391288 0.006003882
000030 e0 7a 85 3f 03 35 43 bc a2 08 16 3e 9e e7 2c 3f
       1.0428123 -0.011914494 0.1465173 0.6754092

fc1.bias f4 [8]
000000 a1 51 88 3e e2 7f 17 bf 56 c8 98 3c ba 55 8b 3e
       0.26624778 -0.5917951 0.018650215 0.27213842
000010 d2 23 0f bf be e1 43 bb ba 9a b8 bc e7 c0 15 3f
       -0.5591403 -0.0029889192 -0.022534717 0.5849747

fc2.weight f4 [1, 8]
000000 a2 aa 85 3c c2 bb 8a 3b 28 fd 32 3d 80 ff 18 be
       0.016316716 0.0042338083 0.04369846 -0.14941216
000010 4a ac bc bb 29 33 45 3f 46 24 cc be b5 df 3b bc
       -0.005757843 0.7703119 -0.39871424 -0.01146691
