src/models/tanh_60k/domain_tanh_epoch=23499.ckpt (torch, 2779 bytes, 3 tensors)

fc1.weight f4 [8, 2]
000000 be 8d 22 bf ac 8a bd 3c 2e 80 28 be 8f 7e d2 3e
       -0.6349753 0.023137413 -0.16455147 0.41112182
000010 cb e5 05 3f 17 89 e4 3e 00 8c 11 bf 83 69 81 3e
       0.5230376 0.4463584 -0.5685425 0.25275812
000020 de 77 b8 bd c3 fa b3 be 72 56 94 bf 2b 3b 71 3b
       -0.09007238 -0.35152254 -1.1588881 0.0036808948
000030 d9 8f 66 3f 0d 39 f3 bb cd 2b 14 3e 9e e7 2c 3f
       0.90063244 -0.0074225725 0.14469834 0.6754092

fc1.bias f4 [8]
000000 4c 03 8a 3e e2 7f 17 bf de d1 92 3c bf e8 90 3e
       0.2695564 -0.5917951 0.017922338 0.2830257
000010 d2 23 0f bf 66 bf 52 bd 04 79 a9 bb e7 c0 15 3f
       -0.5591403 -0.051452063 -0.005171897 0.5849747

fc2.weight f4 [1, 8]
000000 21 23 eb 3d 01 a2 bf 3b 00 37 52 3d a5 63 e9 bd
       0.1148131 0.00584817 0.051321983 -0.11395959
000010 8b 31 96 bb 6e f5 27 3f 0a cb c5 be 00 5e 3c bc
       -0.0045835427 0.6560887 -0.3863147 -0.011497021
