src/models/tanh_60k/domain_tanh_epoch=499.ckpt (torch, 2715 bytes, 3 tensors)

fc1.weight f4 [8, 2]
00000000: d835 61be 2715 bdba 9a8e 2fbe 2afb d23e
00000010: ee82 e93e 975c 083f 16ac febe f018 ce3e
00000020: 73eb c3bd 46f3 b5be 7e34 00bf 2703 513e
00000030: d14d b13e ed19 16be c3b9 133e f705 2d3f
-0.21993196 -0.001442586 -0.17144242 0.41207248 0.45607704 0.5326628 -0.49740666 0.402534
-0.09566393 -0.35537165 -0.50080097 0.20411359 0.34629682 -0.14658327 0.14426331 0.67587227

fc1.bias f4 [8]
00000000: a51f bf3e da56 17bf 4c57 8c3c e62e 933e
00000010: 7109 0fbf 0b97 35be da3f 293c e7c0 153f
0.3732883 -0.591169 0.01713147 0.28746718 -0.5587378 -0.177334 0.010330165 0.5849747

fc2.weight f4 [1, 8]
00000000: 6632 683e a6e0 2c3d e3f4 39be 4690 2e3e
00000010: f9ab 8d3d 23f7 853e 893a 5cbe 8aed 76bd
0.22675475 0.04220643 -0.18159823 0.17047223 0.06917567 0.26165113 -0.21506704 -0.06028513
