src/models/tanh_60k/domain_tanh_epoch=3999.ckpt (torch, 2779 bytes, 3 tensors)

fc1.weight f4 [8, 2]
0	0xbedcaf47	-0.43102476
1	0x3a2769e2	0.0006386322
2	0xbe266b3f	-0.16251849
3	0x3ed40dd5	0.41416803
4	0x3ef58eb5	0.4796044
5	0x3f008405	0.50201446
6	0xbf03518a	-0.51296294
7	0x3ebb9556	0.36637372
8	0xbdb8632d	-0.09003291
9	0xbeb4d203	-0.35316476
10	0xbf30a121	-0.68995863
11	0x3a983f59	0.0011615559
12	0x3f0a0fb2	0.539302
13	0xbae617fe	-0.0017554758
14	0x3e12c779	0.14333905
15	0x3f2cf397	0.6755919

fc1.bias f4 [8]
0	0x3ea6698a	0.32502395
1	0xbf17634d	-0.59135896
2	0x3c8b2108	0.016983524
3	0x3e938406	0.28811663
4	0xbf0f23d2	-0.5591403
5	0xbe1f648b	-0.15565698
6	0x3c619f77	0.01377093
7	0x3f15c0e7	0.5849747

fc2.weight f4 [1, 8]
0	0x3e8cf322	0.27529246
1	0xbcc21774	-0.023692824
2	0xbae3e01b	-0.0017385514
3	0xbb399607	-0.0028318183
4	0xbc14dc39	-0.009085708
5	0x3ee75703	0.45183572
6	0xbeb09649	-0.34489658
7	0x3c8b11d7	0.01697628
