src/models/tanh_60k/domain_tanh_epoch=26999.ckpt (torch, 2779 bytes, 3 tensors)

fc1.weight f4 [8, 2]
00000000: d4ae 24bf 2333 d93c 32a9 28be 3b8c d23e
00000010: 9978 073f 10df df3e debb 13bf 0dbf 6a3e
00000020: 7e0a b8bd c3fa b3be 17cf 9bbf 1021 8b3b
00000030: 5f3c 703f c84f 0abc d9a6 143e 9ee7 2c3f
-0.64329267 0.026513642 -0.16470793 0.41122612 0.5291839 0.4372487 -0.5770854 0.22924443
-0.08986376 -0.35152254 -1.2172574 0.0042458847 0.9384212 -0.008441873 0.14516772 0.6754092

fc1.bias f4 [8]
00000000: be13 893e e27f 17bf aa27 943c 8ffb 8f3e
00000010: d223 0fbf 978c 1ebd c7c4 13bc e7c0 153f
0.26772875 -0.5917951 0.01808532 0.2812161 -0.5591403 -0.038708296 -0.009019083 0.5849747

fc2.weight f4 [1, 8]
00000000: 6723 b83d a9db c53b 16bf 4b3d 4eba f8bd
00000010: 0b09 9ebb d0f3 2e3f 136f c7be 12c0 43bc
0.089911275 0.0060381484 0.04974278 -0.1214491 -0.0048228553 0.6834078 -0.3895193 -0.011947649
