src/models/tanh_60k/domain_tanh_epoch=9499.ckpt (torch, 2779 bytes, 3 tensors)

fc1.weight f4 [8, 2]
0	0xbf0a5e7b	-0.54050416
1	0x3c338c6c	0.010958772
2	0xbe2894db	-0.16463034
3	0x3ed2a9c0	0.41145134
4	0x3efb1aba	0.49043828
5	0x3efacd14	0.48984587
6	0xbf063098	-0.524179
7	0x3eb26954	0.34845984
8	0xbdba88ab	-0.091080986
9	0xbeb43afc	-0.35201252
10	0xbf5d70cb	-0.86500233
11	0x3b0b0982	0.0021215384
12	0x3f3027b6	0.68810594
13	0xbb9310f9	-0.0044881073
14	0x3e12e0a3	0.14343505
15	0x3f2ce79e	0.6754092

fc1.bias f4 [8]
0	0x3e96ee5a	0.29478723
1	0xbf17752c	-0.59163165
2	0x3c8cf0fd	0.017204756
3	0x3e933d10	0.28757524
4	0xbf0f23d2	-0.5591403
5	0xbdf40a1b	-0.1191599
6	0x3c24eae7	0.010065771
7	0x3f15c0e7	0.5849747

fc2.weight f4 [1, 8]
0	0x3e6ccc2d	0.23124762
1	0xbc8fe396	-0.017564576
2	0x3d4954b2	0.049153037
3	0xbd9f41e7	-0.07776242
4	0xbc12b460	-0.008954138
5	0x3f094813	0.536256
6	0xbebef11c	-0.37293327
7	0x3b7b59a0	0.0038352981
