src/models/tanh_60k/domain_tanh_epoch=39999.ckpt (torch, 2779 bytes, 3 tensors)

fc1.weight f4 [8, 2]
0	0xbf2753ea	-0.6536242
1	0x3d11e390	0.03561741
2	0xbe28fea5	-0.16503389
3	0x3ed297eb	0.4113153
4	0x3f0c117b	0.54714173
5	0x3ed168a6	0.40900153
6	0xbf195fab	-0.599116
7	0x3e1b5429	0.15168823
8	0xbdb6566a	-0.08903201
9	0xbeb3fac3	-0.35152254
10	0xbfb3c131	-1.4043332
11	0x3bc81a0c	0.0061066207
12	0x3f866aec	1.050138
13	0xbc470b2e	-0.012148662
14	0x3e1620ae	0.14660904
15	0x3f2ce79e	0.6754092

fc1.bias f4 [8]
0	0x3e8851a1	0.26624778
1	0xbf177fe2	-0.5917951
2	0x3c992de6	0.018698644
3	0x3e8ad647	0.27116606
4	0xbf0f23d2	-0.5591403
5	0xb9e80c22	-0.00044259528
6	0xbcc22612	-0.023699794
7	0x3f15c0e7	0.5849747

fc2.weight f4 [1, 8]
0	0x3c341fd5	0.0109939175
1	0x3b850881	0.0040598516
2	0x3d30be90	0.043150485
3	0xbe1b92d4	-0.15192729
4	0xbbbe772a	-0.0058125453
5	0x3f46edee	0.777068
6	0xbecc71e1	-0.39930633
7	0xbc3a5b7d	-0.011374352
