src/models/tanh_60k/domain_tanh_epoch=10999.ckpt (torch, 2779 bytes, 3 tensors)

fc1.weight f4 [8, 2]
0	0xbf0ef71b	-0.55845803
1	0x3c4bc5c5	0.012437289
2	0xbe2873df	-0.16450451
3	0x3ed285bd	0.4111766
4	0x3efd34d6	0.49454373
5	0x3ef83d3b	0.48484215
6	0xbf077beb	-0.5292346
7	0x3eadbe42	0.33934218
8	0xbdba472c	-0.09095606
9	0xbeb427d2	-0.3518663
10	0xbf674dda	-0.9035317
11	0x3b1011f2	0.0021983352
12	0x3f37df4c	0.718251
13	0xbb9b690e	-0.004742748
14	0x3e12d2be	0.14338204
15	0x3f2ce79e	0.6754092

fc1.bias f4 [8]
0	0x3e9460dd	0.2898015
1	0xbf177b08	-0.59172106
2	0x3c8da6a1	0.017291369
3	0x3e93158d	0.2872738
4	0xbf0f23d2	-0.5591403
5	0xbde1dea0	-0.110287905
6	0x3c0ba97f	0.008524298
7	0x3f15c0e7	0.5849747

fc2.weight f4 [1, 8]
0	0x3e5eae64	0.21746212
1	0xbc4296a0	-0.011876732
2	0x3d53614f	0.051606473
3	0xbdad01eb	-0.084476314
4	0xbbfd414e	-0.007728732
5	0x3f0d05ec	0.5508716
6	0xbebff1a1	-0.37489036
7	0x39929072	0.0002795491
