src/models/tanh_60k/domain_tanh_epoch=44499.ckpt (torch, 2779 bytes, 3 tensors)

fc1.weight f4 [8, 2]
-0.65363353 0.03555862 -0.16510095 0.4113153 0.55189437 0.40112963 -0.60388386 0.12858877
-0.08873026 -0.35152254 -1.4607472 0.006417648 1.0810207 -0.012971552 0.14701137 0.6754092
00000000: 8754 27bf eaa5 113d 3910 29be eb97 d23e
00000010: f348 0d3f dd60 cd3e 2298 1abf c6ac 033e
00000020: 36b8 b5bd c3fa b3be c4f9 babf 224b d23b
00000030: e35e 8a3f a286 54bc 268a 163e 9ee7 2c3f

fc1.bias f4 [8]
0.2662315 -0.5917951 0.018919833 0.26640475 -0.5591403 0.010387069 -0.029030614 0.5849747
00000000: 7f4f 883e e27f 17bf c4fd 9a3c 3466 883e
00000010: d223 0fbf 862e 2a3c 9cd1 edbc e7c0 153f

fc2.weight f4 [1, 8]
-0.011554502 0.0033368636 0.040518697 -0.16361488 -0.006003454 0.8065729 -0.40161836 -0.010930383
00000000: 184f 3dbc 48af 5a3b eff6 253d a98a 27be
00000010: 9fb8 c4bb 907b 4e3f eca0 cdbe 5915 33bc
