src/models/tanh_60k/domain_tanh_epoch=26499.ckpt (torch, 2779 bytes, 3 tensors)

fc1.weight f4 [8, 2]
000000 be 6e 24 bf 9c 3c d5 3c 56 a3 28 be 47 8a d2 3e
       -0.6423148 0.026029877 -0.16468558 0.41121122
000010 e9 41 07 3f 16 84 e0 3e e6 70 13 bf d6 1e 6e 3e
       0.52834946 0.43850774 -0.57594144 0.2325395
000020 1e 1a b8 bd c3 fa b3 be 28 c6 9a bf b5 73 88 3b
       -0.089893565 -0.35152254 -1.2091722 0.004164184
000030 a4 ea 6e 3f cc dc 07 bc 45 95 14 3e 9e e7 2c 3f
       0.93326783 -0.008292388 0.14510067 0.6754092

fc1.bias f4 [8]
000000 17 2e 89 3e e2 7f 17 bf d6 f6 93 3c a3 20 90 3e
       0.26792976 -0.5917951 0.018062036 0.281499
000010 d2 23 0f bf 5d b0 25 bd de bf 0a bc e7 c0 15 3f
       -0.5591403 -0.040451396 -0.008468596 0.5849747

fc2.weight f4 [1, 8]
000000 fe 39 bf 3d a4 54 c6 3b cc b5 4c 3d 94 81 f6 bd
       0.09337233 0.0060525704 0.049978063 -0.12036434
000010 33 b6 9c bb b4 f7 2d 3f 7b 34 c7 be f6 2b 43 bc
       -0.004782462 0.6795609 -0.38907227 -0.011912337
