src/models/tanh_60k/domain_tanh_epoch=5499.ckpt (torch, 2779 bytes, 3 tensors)

fc1.weight f4 [8, 2]
0	0xbef160df	-0.4714422
1	0x3b9be789	0.0047578258
2	0xbe27ed35	-0.16399081
3	0x3ed38ef3	0.4132
4	0x3ef630b5	0.48084036
5	0x3f003251	0.50076777
6	0xbf038db6	-0.5138811
7	0x3ebafb1d	0.3651971
8	0xbdb9fe1e	-0.09081672
9	0xbeb49b64	-0.35274804
10	0xbf3ec74c	-0.7452285
11	0x3ae58ab7	0.0017512654
12	0x3f16bb1f	0.58879274
13	0xbb4abbb1	-0.0030934627
14	0x3e133655	0.14376195
15	0x3f2ce9a3	0.67544

fc1.bias f4 [8]
0	0x3ea0c5b4	0.31400836
1	0xbf17658c	-0.59139323
2	0x3c8b5349	0.017007487
3	0x3e937e20	0.28807163
4	0xbf0f23d2	-0.5591403
5	0xbe1497ec	-0.14511079
6	0x3c5a65ee	0.013329966
7	0x3f15c0e7	0.5849747

fc2.weight f4 [1, 8]
0	0x3e88441b	0.2661446
1	0xbcf3afff	-0.029747007
2	0x3ccdde3d	0.025130386
3	0xbd1b6495	-0.03793772
4	0xbc355e18	-0.011069797
5	0x3ef80e97	0.4844863
6	0xbeb80498	-0.35941005
7	0x3c703114	0.014660139
