src/models/tanh_60k/domain_tanh_epoch=44999.ckpt (torch, 2779 bytes, 3 tensors)

fc1.weight f4 [8, 2]
-0.65358573 0.03541888 -0.1651084 0.4113153 0.5523712 0.4003153 -0.60433245 0.12614232
-0.08869673 -0.35152254 -1.466804 0.006435213 1.0842493 -0.0130356755 0.14705607 0.6754092
00000000: 6551 27bf 6313 113d 2d12 29be eb97 d23e
00000010: 3368 0d3f 21f6 cc3e 88b5 1abf 742b 013e
00000020: a2a6 b5bd c3fa b3be 3cc0 bbbf 7bde d23b
00000030: aec8 8a3f 9693 55bc de95 163e 9ee7 2c3f

fc1.bias f4 [8]
0.2662166 -0.5917951 0.018944979 0.2658385 -0.5591403 0.011531644 -0.029631665 0.5849747
00000000: 8b4d 883e e27f 17bf 8032 9b3c fc1b 883e
00000010: d223 0fbf 38ef 3c3c 1bbe f2bc e7c0 153f

fc2.weight f4 [1, 8]
-0.013924385 0.0032638772 0.040204227 -0.16495043 -0.0060192416 0.80976176 -0.40184188 -0.010879356
00000000: 1b23 64bc c6e6 553b 30ad 243d c4e8 28be
00000010: 0f3d c5bb 8c4c 4f3f 38be cdbe 543f 32bc
