src/models/tanh_60k/domain_tanh_epoch=3499.ckpt (torch, 2779 bytes, 3 tensors)

fc1.weight f4 [8, 2]
00000000: 9b22 d4be db4f 96ba 90c8 25be 6531 d43e
00000010: 9caf f53e 8875 003f 8552 03bf fc97 bb3e
00000020: 2ea5 b7bd 97e3 b4be e367 2bbf 7da4 7b3a
00000030: 8b30 053f 890d 9dba 5f6b 123e c4f9 2c3f
-0.41432652 -0.001146789 -0.1618979 0.41443935 0.47985542 0.5017934 -0.5129779 0.36639392
-0.089670524 -0.35329887 -0.66955394 0.0009599401 0.52027196 -0.0011982183 0.14298771 0.6756861

fc1.bias f4 [8]
00000000: b6b0 a83e 4d63 17bf c72a 8b3c 0684 933e
00000010: d223 0fbf f711 23be 6ef3 603c e7c0 153f
0.3294732 -0.59135896 0.016988171 0.28811663 -0.5591403 -0.15924822 0.013729913 0.5849747

fc2.weight f4 [1, 8]
00000000: 34f5 8d3e dcfa 94bc 110a 7bbc 56b3 5d3c
00000010: 28df f6bb 71fc df3e 58d4 acbe 1c09 8b3c
0.27726138 -0.018186025 -0.015322224 0.013531527 -0.0075339265 0.43747285 -0.33755755 0.016972117
