src/models/tanh_60k/domain_tanh_epoch=6499.ckpt (torch, 2779 bytes, 3 tensors)

fc1.weight f4 [8, 2]
0	0xbefc45b6	-0.49271935
1	0x3bdeb327	0.006796259
2	0xbe286bc5	-0.16447361
3	0x3ed340b0	0.4126029
4	0x3ef72a5c	0.48274505
5	0x3eff58d9	0.49872473
6	0xbf03ff29	-0.5156122
7	0x3eb9abd3	0.36263904
8	0xbdba7d49	-0.091059275
9	0xbeb47b6e	-0.3525042
10	0xbf4739e4	-0.7782271
11	0x3afdafaf	0.0019354726
12	0x3f1dfb4f	0.6171159
13	0xbb6f19b0	-0.0036483817
14	0x3e1330e2	0.14374116
15	0x3f2ce79e	0.6754092

fc1.bias f4 [8]
0	0x3e9dc0b6	0.3081109
1	0xbf176974	-0.59145284
2	0x3c8ba307	0.017045511
3	0x3e93744b	0.28799662
4	0xbf0f23d2	-0.5591403
5	0xbe0da18a	-0.13831154
6	0x3c504378	0.012711398
7	0x3f15c0e7	0.5849747

fc2.weight f4 [1, 8]
0	0x3e843645	0.25822654
1	0xbcea3b8e	-0.028592851
2	0x3d1114e6	0.03542032
3	0xbd592452	-0.053013153
4	0xbc359d45	-0.011084859
5	0x3f00255c	0.50057006
6	0xbebade55	-0.3649775
7	0x3c469e61	0.012122721
