src/models/tanh_60k/domain_tanh_epoch=59499.ckpt (torch, 2779 bytes, 3 tensors)

fc1.weight f4 [8, 2]
-0.6511352 0.02162316 -0.16520596 0.4113153 0.5627379 0.38244188 -0.6129968 0.06573672
-0.08778422 -0.35152254 -1.6267742 0.005304331 1.1642847 -0.011907052 0.14806135 0.6754092
00000000: ccb0 26bf 0e23 b13c c02b 29be eb97 d23e
00000010: 970f 103f 6ccf c33e 5ced 1cbf f9a0 863d
00000020: 37c8 b3bd c3fa b3be 233a d0bf f4cf ad3b
00000030: 4807 953f cc15 43bc 659d 173e 9ee7 2c3f

fc1.bias f4 [8]
0.26394418 -0.5917951 0.019661179 0.24725102 -0.5591403 0.04036254 -0.047518842 0.5849747
00000000: b123 873e e27f 17bf 7b10 a13c 5f2f 7d3e
00000010: d223 0fbf 3153 253d 1ea3 42bd e7c0 153f

fc2.weight f4 [1, 8]
-0.07343168 0.0016978459 0.028186081 -0.20617294 -0.0061910828 0.89526516 -0.4054406 -0.009303135
00000000: 5963 96bd 418a de3a 7fe6 e63c 001f 53be
00000010: 91de cabb 1930 653f e995 cfbe 2d6c 18bc
