src/models/tanh_60k/domain_tanh_epoch=999.ckpt (torch, 2779 bytes, 3 tensors)

fc1.weight f4 [8, 2]
00000000: 10cd 8fbe b25e 85bc 3d23 2bbe 747d d33e
00000010: 7f2e f53e b008 023f 6681 01bf cda6 c43e
00000020: ecf7 bebd 57dd b4be 3678 0bbf 0958 a93d
00000030: bea2 c83e b945 3bbd 8e52 113e b40e 2d3f
-0.28086138 -0.016280506 -0.16712661 0.4130665 0.47887036 0.50794506 -0.5058807 0.3840851
-0.09324631 -0.3532512 -0.544803 0.082687445 0.39186662 -0.04572079 0.14191648 0.6760056

fc1.bias f4 [8]
00000000: 2e58 b93e 0f5d 17bf 85ab 8b3c 816b 933e
00000010: 361e 0fbf 2ac6 34be ab4b 363c e7c0 153f
0.36200088 -0.5912637 0.01704956 0.28792956 -0.55905473 -0.17653719 0.011126439 0.5849747

fc2.weight f4 [1, 8]
00000000: 6240 8b3e 0974 1f3d 4426 20be 2a94 163e
00000010: 73c8 253d 6198 a03e e34d 86be aec8 d8bc
0.27197558 0.03892902 -0.15639597 0.14704958 0.040474366 0.31366256 -0.26231298 -0.026462879
