src/models/tanh_60k/domain_tanh_epoch=30999.ckpt (torch, 2779 bytes, 3 tensors)

fc1.weight f4 [8, 2]
0	0xbf262b69	-0.6490999
1	0x3cf7c004	0.030242927
2	0xbe28c874	-0.16482717
3	0x3ed297eb	0.4113153
4	0x3f0913cd	0.5354584
5	0x3edaf60b	0.4276584
6	0xbf15db6c	-0.58537936
7	0x3e509616	0.20369753
8	0xbdb78d7e	-0.08962534
9	0xbeb3fac3	-0.35152254
10	0xbfa3bfdc	-1.2792926
11	0x3ba062f5	0.004894609
12	0x3f7a1fe6	0.97704923
13	0xbc1e3a2d	-0.009657425
14	0x3e152589	0.145651
15	0x3f2ce79e	0.6754092

fc1.bias f4 [8]
0	0x3e8888da	0.2666691
1	0xbf177fe2	-0.5917951
2	0x3c95ae4a	0.018271584
3	0x3e8eb379	0.27871302
4	0xbf0f23d2	-0.5591403
5	0xbcd1a026	-0.02558906
6	0xbc5c50ef	-0.01344703
7	0x3f15c0e7	0.5849747

fc2.weight f4 [1, 8]
0	0x3d81bef5	0.0633525
1	0x3bb86344	0.0056270678
2	0x3d43d467	0.047809985
3	0xbe057aae	-0.1303508
4	0xbba96602	-0.005169631
5	0x3f36acdf	0.7135753
6	0xbec93348	-0.39296937
7	0xbc44960f	-0.011998667
