src/models/tanh_60k/domain_tanh_epoch=30499.ckpt (torch, 2779 bytes, 3 tensors)

fc1.weight f4 [8, 2]
000000 2b 07 26 bf 18 1e f4 3c 8c c4 28 be eb 97 d2 3e
       -0.6485469 0.029799506 -0.16481227 0.4113153
000010 f9 e2 08 3f 26 8d db 3e ec 9c 15 bf 2b c6 53 3e
       0.5347133 0.42881125 -0.5844257 0.20681064
000020 1e 9d b7 bd c3 fa b3 be d9 c9 a2 bf e0 c5 9d 3b
       -0.089655146 -0.35152254 -1.2717849 0.0048148483
000030 f3 f2 78 3f 37 bb 1b bc e9 15 15 3e 9e e7 2c 3f
       0.9724571 -0.009505085 0.1455914 0.6754092

fc1.bias f4 [8]
000000 78 94 88 3e e2 7f 17 bf 76 7d 95 3c 65 e0 8e 3e
       0.26675773 -0.5917951 0.018248301 0.27905574
000010 d2 23 0f bf 4f 71 de bc d0 32 53 bc e7 c0 15 3f
       -0.5591403 -0.02715364 -0.012890533 0.5849747

fc2.weight f4 [1, 8]
000000 bf 51 88 3d 3e c1 ba 3b ba d5 44 3d 96 51 04 be
       0.06656217 0.005699306 0.048055388 -0.12921748
000010 42 f9 a7 bb 29 ba 35 3f 98 fc c8 be 57 c5 44 bc
       -0.0051261494 0.7098718 -0.39255214 -0.01200994
