src/models/tanh_60k/domain_tanh_epoch=24499.ckpt (torch, 2779 bytes, 3 tensors)

fc1.weight f4 [8, 2]
00000000: f241 23bf fb62 c53c e68b 28be 7782 d23e
00000010: 5e5d 063f 912a e33e 5b34 12bf ddd6 7b3e
00000020: 9e58 b8bd c3fa b3be 0e87 96bf a3a9 7b3b
00000030: 3e6f 693f 5785 fcbb f54e 143e 9ee7 2c3f
-0.637725 0.02409505 -0.16459617 0.41115162 0.5248622 0.44368413 -0.5711114 0.24593683
-0.090012774 -0.35152254 -1.1759965 0.0038400672 0.9118537 -0.007706325 0.14483245 0.6754092

fc1.bias f4 [8]
00000000: b9b0 893e e27f 17bf 8633 933c 95a9 903e
00000010: d223 0fbf c949 43bd 0675 cdbb e7c0 153f
0.2689264 -0.5917951 0.017968904 0.2825438 -0.5591403 -0.04767779 -0.006270054 0.5849747

fc2.weight f4 [1, 8]
00000000: 553e dc3d f80a c43b e56e 503d 2db7 edbd
00000010: d2fc 97bb 91fa 293f 2244 c6be 2a5f 3fbc
0.107540764 0.005982753 0.050887007 -0.11607204 -0.004638293 0.6639796 -0.38723856 -0.011680404
