src/models/tanh_60k/domain_tanh_epoch=7499.ckpt (torch, 2779 bytes, 3 tensors)

fc1.weight f4 [8, 2]
000000 a2 c8 02 bf 98 55 0a 3c c0 9d 28 be 31 00 d3 3e
       -0.5108739 0.008443259 -0.16466427 0.41211084
000010 6d 60 f8 3e 1b fe fd 3e 65 9f 04 bf 2b b3 b7 3e
       0.48511067 0.4960793 -0.51805717 0.35878882
000020 a2 aa ba bd 4b 61 b4 be bd 14 4f bf 8b be 04 3b
       -0.09114577 -0.3523048 -0.8089102 0.0020255174
000030 73 8b 24 3f 03 c6 83 bb 3d 15 13 3e 9e e7 2c 3f
       0.6427528 -0.0040214076 0.1436357 0.6754092

fc1.bias f4 [8]
000000 9b 29 9b 3e 5c 6d 17 bf 4e 08 8c 3c 01 66 93 3e
       0.3030518 -0.59151244 0.017093804 0.2878876
000010 d2 23 0f bf d4 e0 06 be 8f 6f 43 3c e7 c0 15 3f
       -0.5591403 -0.13171703 0.011928453 0.5849747

fc2.weight f4 [1, 8]
000000 3c 86 7f 3e 31 06 d1 bc 04 4d 2c 3d d8 b3 82 bd
       0.2495355 -0.025515648 0.042065635 -0.06381959
000010 e6 37 2d bc d5 93 03 3f e0 be bc be 4c 9d 18 3c
       -0.010572409 0.5139745 -0.36864376 0.009314846
