src/models/tanh_60k/domain_tanh_epoch=56999.ckpt (torch, 2779 bytes, 3 tensors)

fc1.weight f4 [8, 2]
-0.65158224 0.025014296 -0.16520596 0.4113153 0.5614622 0.38469514 -0.61195374 0.07467546
-0.087933235 -0.35152254 -1.6011397 0.00570866 1.1521727 -0.012518259 0.14791234 0.6754092
00000000: 18ce 26bf c8ea cc3c c02b 29be eb97 d23e
00000010: fdbb 0f3f c3f6 c43e 00a9 1cbf 73ef 983d
00000020: 5716 b4bd c3fa b3be 25f2 ccbf b60f bb3b
00000030: 657a 933f 6219 4dbc 5576 173e 9ee7 2c3f

fc1.bias f4 [8]
0.26465684 -0.5917951 0.019543229 0.25069758 -0.5591403 0.035974156 -0.044415507 0.5849747
00000000: 1a81 873e e27f 17bf 1f19 a03c 6f5b 803e
00000010: d223 0fbf a359 133d 09ed 35bd e7c0 153f

fc2.weight f4 [1, 8]
-0.0642725 0.001901069 0.030723628 -0.19885917 -0.0061834697 0.88148373 -0.40522066 -0.009589328
00000000: 4da1 83bd 4a2d f93a 1eb0 fb3c bda1 4bbe
00000010: b49e cabb eba8 613f 1579 cfbe 8f1c 1dbc
