src/models/tanh_60k/domain_tanh_epoch=55999.ckpt (torch, 2779 bytes, 3 tensors)

fc1.weight f4 [8, 2]
000000 d0 d9 26 bf 00 68 d7 3c c0 2b 29 be eb 97 d2 3e
       -0.65176105 0.026294708 -0.16520596 0.4113153
000010 63 96 0f 3f d4 79 c5 3e 96 8a 1c bf 2a 9e a0 3d
       0.56088847 0.3856951 -0.61148965 0.078426674
000020 97 35 b4 bd c3 fa b3 be 4b 9b cb bf 57 b0 bf 3b
       -0.08799284 -0.35152254 -1.5906767 0.005849879
000030 0c d6 92 3f db 5c 50 bc b5 66 17 3e 9e e7 2c 3f
       1.1471572 -0.012717451 0.14785273 0.6754092

fc1.bias f4 [8]
000000 ad a0 87 3e e2 7f 17 bf 8f b3 9f 3c 65 0c 81 3e
       0.26489773 -0.5917951 0.0194948 0.2520477
000010 d2 23 0f bf 65 e0 0b 3d 59 d4 30 bd e7 c0 15 3f
       -0.5591403 0.034149546 -0.04317126 0.5849747

fc2.weight f4 [1, 8]
000000 f1 c8 77 bd 29 61 02 3b 3f c4 01 3d 2a a4 48 be
       -0.060494367 0.0019894338 0.031681295 -0.19593874
000010 7e 81 ca bb 3a 38 60 3f b5 66 cf be 50 f4 1e bc
       -0.0061799875 0.87585795 -0.40508047 -0.009701803
