src/models/tanh_60k/domain_tanh_epoch=15499.ckpt (torch, 2779 bytes, 3 tensors)

fc1.weight f4 [8, 2]
0	0xbf190735	-0.5977662
1	0x3c84509f	0.016151724
2	0xbe28438b	-0.16432016
3	0x3ed2674c	0.41094434
4	0x3f019129	0.5061212
5	0x3ef09ec8	0.4699614
6	0xbf0b69c1	-0.5445824
7	0x3e9e3234	0.30897677
8	0xbdb9824f	-0.090580575
9	0xbeb40ade	-0.3516454
10	0xbf80d279	-1.0064231
11	0x3b28f812	0.0025782627
12	0x3f4b9290	0.7952051
13	0xbbb48027	-0.005508441
14	0x3e131b89	0.14365973
15	0x3f2ce79e	0.6754092

fc1.bias f4 [8]
0	0x3e8ee11f	0.2790613
1	0xbf177fe2	-0.5917951
2	0x3c8fa9e9	0.017537074
3	0x3e927981	0.28608325
4	0xbf0f23d2	-0.5591403
5	0xbdb0aa08	-0.08626181
6	0x3b6e53b4	0.003636581
7	0x3f15c0e7	0.5849747

fc2.weight f4 [1, 8]
0	0x3e361caa	0.17784372
1	0xb99ceb33	-0.00029929876
2	0x3d5b4f32	0.053542323
3	0xbdc709e9	-0.09718687
4	0xbbae0827	-0.0053110304
5	0x3f173300	0.59062195
6	0xbec21657	-0.3790767
7	0xbbe39aed	-0.006945959
