src/models/tanh_60k/domain_tanh_epoch=49499.ckpt (torch, 2779 bytes, 3 tensors)

fc1.weight f4 [8, 2]
0	0xbf2725fc	-0.65292335
1	0x3d072179	0.032990906
2	0xbe2923c1	-0.16517545
3	0x3ed297eb	0.4113153
4	0x3f0e6daf	0.55636114
5	0x3ec9801a	0.39355546
6	0xbf1b9cdf	-0.6078624
7	0x3dd7765d	0.10520623
8	0xbdb5086e	-0.088394985
9	0xbeb3fac3	-0.35152254
10	0xbfc2809d	-1.51955
11	0x3bd26ad1	0.006421425
12	0x3f8e4f74	1.1117997
13	0xbc5a3c5f	-0.013320058
14	0x3e16f192	0.1474059
15	0x3f2ce79e	0.6754092

fc1.bias f4 [8]
0	0x3e882abf	0.26595113
1	0xbf177fe2	-0.5917951
2	0x3c9d0d1c	0.01917129
3	0x3e855d92	0.2604795
4	0xbf0f23d2	-0.5591403
5	0x3caef631	0.021357628
6	0xbd0fd010	-0.035110533
7	0x3f15c0e7	0.5849747

fc2.weight f4 [1, 8]
0	0xbd0c087f	-0.03418779
1	0x3b2ed7bf	0.0026678888
2	0x3d1812fe	0.037127487
3	0xbe358d1f	-0.17729615
4	0xbbc8a200	-0.0061228275
5	0x3f5675b4	0.8377335
6	0xbece9d90	-0.40354586
7	0xbc2a8add	-0.010409084
