src/models/tanh_60k/domain_tanh_epoch=8499.ckpt (torch, 2779 bytes, 3 tensors)

fc1.weight f4 [8, 2]
0	0xbf06d1d0	-0.526639
1	0x3c209fdb	0.0098037375
2	0xbe28a3ac	-0.16468686
3	0x3ed2ce79	0.4117315
4	0x3ef9b686	0.48772067
5	0x3efc7331	0.49306634
6	0xbf055ec0	-0.520977
7	0x3eb53b58	0.35396838
8	0xbdbaa6c2	-0.09113838
9	0xbeb44bf2	-0.35214192
10	0xbf567549	-0.8377271
11	0x3b0829bb	0.0020776826
12	0x3f2a917b	0.66628236
13	0xbb8c689e	-0.0042849323
14	0x3e12f752	0.14352158
15	0x3f2ce79e	0.6754092

fc1.bias f4 [8]
0	0x3e98e8f3	0.29865226
1	0xbf177144	-0.59157205
2	0x3c8c79b9	0.017147886
3	0x3e93537b	0.28774628
4	0xbf0f23d2	-0.5591403
5	0xbe005753	-0.12533312
6	0x3c34c9fc	0.011034485
7	0x3f15c0e7	0.5849747

fc2.weight f4 [1, 8]
0	0x3e763b59	0.24046077
1	0xbcb125c9	-0.021624463
2	0x3d3de908	0.046364814
3	0xbd92f3cc	-0.07175407
4	0xbc20a53b	-0.009805019
5	0x3f069213	0.5256664
6	0xbebe0645	-0.37114158
7	0x3bd5034d	0.0065006376
