src/models/tanh_60k/domain_tanh_epoch=13999.ckpt (torch, 2779 bytes, 3 tensors)

fc1.weight f4 [8, 2]
-0.5866452 0.014955523 -0.16434099 0.4109628 0.5024252 0.47482547 -0.5395443 0.3193999
-0.09069605 -0.3516901 -0.9738965 0.0024269451 0.7714093 -0.005234702 0.14351407 0.6754092
00000000: 612e 16bf 0308 753c 0149 28be b769 d23e
00000010: f09e 003f 531c f33e 931f 0abf 6288 a33e
00000020: dabe b9bd ba10 b4be 4851 79bf 620d 1f3b
00000030: 147b 453f dd87 abbb 5af5 123e 9ee7 2c3f

fc1.bias f4 [8]
0.282063 -0.5917951 0.01745814 0.28652266 -0.5591403 -0.09386344 0.0052861026 0.5849747
00000000: 906a 903e e27f 17bf 6004 8f3c 19b3 923e
00000010: d223 0fbf 7a3b c0bd 0b37 ad3b e7c0 153f

fc2.weight f4 [1, 8]
0.19070372 -0.0032415083 0.05340378 -0.0936227 -0.0058918954 0.5777679 -0.37777814 -0.0050646286
00000000: d647 433e 7c6f 54bb ecbd 5a3d 42bd bfbd
00000010: cd10 c1bb 99e8 133f 236c c1be 2ff5 a5bb
