src/models/tanh_60k/final_model_tanh.pt (torch, 2715 bytes, 3 tensors)

fc1.weight f4 [8, 1]
000000 c3 af 29 be 24 f0 01 bf 7a 47 2b be ea 1e c7 be
       -0.16570954 -0.5075705 -0.16726485 -0.38890773
000010 8b 63 06 bf bb 96 af be 23 b8 89 be 13 b9 4a bf
       -0.5249564 -0.34294686 -0.26898298 -0.7918865

fc1.bias f4 [8]
000000 d6 62 3f 3f c5 de 3e 3f 1a 89 51 bf 9a 1d 3d bf
       0.74760187 0.7455867 -0.81849825 -0.73873293
000010 a4 93 d0 3e d8 39 bd be 37 2f 9d be f4 db 8d be
       0.4073764 -0.36958194 -0.30700085 -0.27706873

fc2.weight f4 [1, 8]
000000 c2 f5 b5 ba b2 3e db 3b 78 c1 5b b9 5f 36 40 3c
       -0.0013882446 0.0066908235 -0.0002095754 0.011731713
000010 14 1b 5f 3c 87 8d 45 3c dc f4 10 3c 1d 1e cf 3c
       0.013617296 0.0120576685 0.0088474415 0.025282914
