src/models/runs/final_model.pt (torch, 2715 bytes, 3 tensors)

fc1.weight f4 [8, 1]
00000000: 5f3b 823e b468 3b3f edd7 51bf 7769 a3bd
00000010: 23e7 193e 5df5 18be 631e 063f 90bc f7be
0.25435922 0.7320664 -0.819701 -0.079791 0.15029578 -0.14937349 0.52390116 -0.4838605

fc1.bias f4 [8]
00000000: be1c 993c 57b9 433d bce8 43bf 0239 f4be
00000010: 1f4c 94be af74 183f 86db 77bf 2af6 9a3e
0.018690463 0.047784176 -0.76527 -0.47699744 -0.28964326 0.59553045 -0.9681934 0.30265933

fc2.weight f4 [1, 8]
00000000: 830b 71bd e119 97bd 37fc 933d 3024 ca3c
00000010: 9325 31bd 1bda 183d fd14 81bd e636 8c3d
-0.05884887 -0.07377983 0.072258405 0.024675459 -0.043248724 0.037317377 -0.06302831 0.068464085
